checkpoint.pth (torch, 30457 bytes, 6 tensors)

layers.0.weight f4 [64, 37]
0	0xbd8fbb51	-0.0701815
1	0x3dbf9274	0.093541056
2	0xbda3bac3	-0.07994606
3	0xbe2ce8ef	-0.16885732
4	0x3c4f50ca	0.012653539
5	0xbc503f80	-0.012710452
6	0xbd2b0237	-0.04175016
7	0x3e0cc27d	0.13746066
8	0x3dedc583	0.11609938
9	0x3e3cdb7c	0.18443102
10	0x3e8dcf53	0.27697238
11	0xbf07fe48	-0.5312238
12	0xbefd29ca	-0.49445945
13	0xbea8c2c9	-0.3296111
14	0xbfa9ad17	-1.3255948
15	0x3c2b1a67	0.0104433065
16	0x3cadabf8	0.021200165
17	0x3d0caedb	0.034346443
18	0xbc39fa0a	-0.011351118
19	0xbd80f973	-0.06297579
20	0x3d91dcec	0.07122216
21	0x3e277b7f	0.16355704
22	0x3cbdd7c6	0.023174178
23	0x3aed87a5	0.001812209
24	0xbd62373b	-0.055228453
25	0xbd9b6862	-0.07588269
26	0xbc966357	-0.018357916
27	0x3d6d9044	0.05799891
28	0x3d58429a	0.05279789
29	0x3daf3f0f	0.08556949
30	0xbdd84c22	-0.10561396
31	0x3dfee437	0.12445872
32	0x3cb451dd	0.022011692
33	0xbd0e7f1d	-0.034789193
34	0xbdd0ceb5	-0.10195676
35	0xbd3a160a	-0.045431174
36	0x3bfe701e	0.0077648303
37	0x3e16edfd	0.14739223
38	0x3def8f5a	0.11697264
39	0x3dc1bb5d	0.09459565
40	0x3de04457	0.10950535
41	0xbd7385ba	-0.059453703
42	0x3e05a405	0.1305085
43	0xbe6b2d62	-0.22966531
44	0xbe024a5f	-0.12723683
45	0xbe253a56	-0.16135535
46	0x3c273a3d	0.010206756
47	0x3ddcdca6	0.10784273
48	0x3d8e1592	0.06937708
49	0xbd01afe2	-0.031661876
50	0x3bdda9e7	0.0067646387
51	0xbb7e6862	-0.0038819541
52	0x3e594b81	0.21220209
53	0xbc710ca8	-0.01471249
54	0x3bf98b1a	0.007615459
55	0x3c26f312	0.010189788
56	0xbd987c7a	-0.07445617
57	0xbd8507b1	-0.06495608
58	0xbd8a1e02	-0.06744005
59	0xbd2d53a2	-0.042316087
60	0x3cc02dab	0.023459276
61	0x3d1bcd6e	0.03803771
62	0x3d5a4d20	0.05329621
63	0x3e017a92	0.12644413
64	0xbd7efc6e	-0.062252454
65	0xbe1a203a	-0.15051356
66	0xbe614b15	-0.22001298
67	0x3e49cd41	0.19707204
68	0x3db340f1	0.08752621
69	0x3d7d2fba	0.061813094
70	0xbe16b9be	-0.14719293
71	0xbe51ca05	-0.2048722
72	0x3d8d1a6f	0.068898074
73	0x3d4c1677	0.04982611
74	0xbe84bd35	-0.25925604
75	0x3da61f25	0.08111409
76	0x3e4d223d	0.20032592
77	0xbdc77042	-0.09738208
78	0x3e84ebd4	0.25961173
79	0xbeb63e53	-0.35594425
80	0xbdf20996	-0.118182346
81	0xbe1a1e43	-0.15050606
82	0x3e18c1e9	0.14917721
83	0xbe85deec	-0.26146638
84	0xbd822d7b	-0.06356331
85	0xbe405276	-0.18781456
86	0x3d0d0b33	0.03443451
87	0xbe967a53	-0.293902
88	0xbd10dcc7	-0.0353668
89	0xbeb1dc7a	-0.34738523
90	0xbe3b00ec	-0.1826207
91	0x3cf6e5fb	0.03013896
92	0x3eb6236b	0.35573897
93	0xbed19d2f	-0.40940234
94	0xbee074e5	-0.43839183
95	0xbe8301b5	-0.2558724
96	0x3e2ae699	0.16689529
97	0xbdd4568c	-0.1036807
98	0xbde1ea66	-0.11031036
99	0xbd4856f0	-0.048911035
100	0x3e339678	0.17537868
101	0xbe8e7849	-0.27826145
102	0xbe106131	-0.14099576
103	0xbe115a69	-0.14194645
104	0xbf06f1aa	-0.527125
105	0xbcc08568	-0.023501113
106	0xbf0bdc01	-0.54632574
107	0xbcdec3cf	-0.027192978
108	0xbea7d24e	-0.32777637
109	0xbd74db47	-0.05977943
110	0xbd808efb	-0.06277271
111	0x3db4845e	0.088143095
112	0xbdd04aca	-0.10170515
113	0x3e1980d9	0.14990558
114	0x3e0b197f	0.13583945
115	0xbe00e1d4	-0.12586147
116	0xbe6c918a	-0.23102394
117	0xbe143782	-0.144743
118	0x3e72ae9f	0.23699425
119	0x3e8013f2	0.25015217
120	0x3e247b1a	0.16062585
121	0x3e252c2d	0.16130133
122	0xbe5d6901	-0.21622087
123	0xbde8dd8b	-0.11370381
124	0xbde8dca8	-0.11370212
125	0xbf1cac76	-0.61200655
126	0xbceb9598	-0.028757855
127	0xbd5d59b9	-0.054040644
128	0xbe192edf	-0.14959286
129	0xbd50975b	-0.050925594
130	0xbda51d69	-0.0806225
131	0x3e2cfe94	0.16893989
132	0xbe0e6fde	-0.13909861
133	0xbde16b60	-0.11006808
134	0x3de73f9c	0.112914294
135	0xbe435c61	-0.19078209
136	0x3dacc8ad	0.08436713
137	0xbde0f9f0	-0.10985172
138	0xbdd1e1d9	-0.10248155
139	0x3e4e1ce4	0.20128208
140	0xbd05b795	-0.03264578
141	0x3dbf738c	0.09348211
142	0x3c52b283	0.012859943
143	0x3d8c11a2	0.06839301
144	0xbd9a6e51	-0.075405724
145	0x3b0ee9e8	0.00218069
146	0x3e1e47f5	0.15457137
147	0x3c5181be	0.012787281
148	0xbd9ba50e	-0.07599841
149	0xbe3e3b03	-0.18577199
150	0xbddf57af	-0.10905396
151	0xbda3b8d6	-0.07994239
152	0x3d225e66	0.039640807
153	0xbd104c3c	-0.035228953
154	0x3da488b0	0.080338836
155	0x3ceac461	0.028658094
156	0x3d7ba403	0.06143571
157	0xbdf91dfc	-0.12163922
158	0x3e90917f	0.28236005
159	0xbeba9719	-0.36443403
160	0xbe431954	-0.1905263
161	0xbe5917ae	-0.2120044
162	0xbf921272	-1.1411879
163	0xbd530a9c	-0.05152379
164	0xbd0c8623	-0.03430761
165	0xbc44b103	-0.0120050935
166	0x3dc49e44	0.09600499
167	0x3e8f3655	0.2797114
168	0xbda8d8b5	-0.082444586
169	0xbd2597b3	-0.040427875
170	0x3d4aee20	0.0495435
171	0x3d8d3e16	0.068966076
172	0x3e90cf57	0.28283188
173	0x3d249ea9	0.040190373
174	0x3d8e39d4	0.069446236
175	0xbcebcc83	-0.028784042
176	0xbd8e74c0	-0.06955862
177	0xbe3794ed	-0.17927904
178	0x3d83c518	0.06434077
179	0xbb71bc56	-0.0036885939
180	0xbbeafd08	-0.007171277
181	0x3dd3c051	0.10339416
182	0x3c81da08	0.015851036
183	0x3cd94f59	0.026527094
184	0x3c2b3f8b	0.010452162
185	0x3d020a66	0.031748198
186	0x39f06759	0.00045853367
187	0x3c825427	0.015909268
188	0xbc7b56f4	-0.015340555
189	0x3d15c53b	0.036565047
190	0x3ea63ad4	0.32466757
191	0xbe9a6261	-0.30153182
192	0xbef6c688	-0.48198342
193	0xbe56991e	-0.20956847
194	0xbfc9cf0d	-1.5766312
195	0xbbe10100	-0.0068665743
196	0xbcab0da6	-0.020880532
197	0xbd248372	-0.04016442
198	0xbd0e6a5b	-0.034769397
199	0xbda58144	-0.08081296
200	0x3cbcace1	0.023031654
201	0xbb683f15	-0.003543799
202	0x3b93eca0	0.004514292
203	0x3b6368bc	0.0034699878
204	0xbdf61385	-0.12015442
205	0x3d673f8b	0.056457084
206	0x3de06744	0.10957196
207	0x3df2e396	0.11859815
208	0x3e0deefe	0.138607
209	0x3e0899e0	0.13339949
210	0xbd571fe5	-0.05252065
211	0xbd3b029e	-0.045656793
212	0x3d67358e	0.056447558
213	0x3e7561b4	0.23963052
214	0x3da1087f	0.078629486
215	0x3b8b8535	0.004257823
216	0x3c93f97a	0.018063296
217	0x3d66ff89	0.05639604
218	0x3e0e67da	0.13906804
219	0x3d8b0a62	0.0678909
220	0xbb8ee6dc	-0.0043610167
221	0x3c548995	0.012972255
222	0xbd9655f7	-0.07340615
223	0x3dadde30	0.084896445
224	0xbd686038	-0.056732386
225	0xbce44a40	-0.027867436
226	0xbe9e17c9	-0.30877522
227	0xbe086392	-0.13319233
228	0x3d3fdebb	0.04684327
229	0x3cd5074b	0.026004454
230	0xbe67c1cc	-0.22632521
231	0x3e2d40e5	0.16919287
232	0xbe6adb7b	-0.22935288
233	0x3e26b1e5	0.16278799
234	0x3e582d83	0.21111111
235	0xbde19b8c	-0.11015996
236	0xbea91f4d	-0.33031693
237	0xbea38163	-0.31934652
238	0xbdfddfd5	-0.12396208
239	0x3dee9840	0.11650133
240	0x3e118cd4	0.14213878
241	0xbd6fb1d6	-0.058519207
242	0x3d320f86	0.043471836
243	0xbdf458f6	-0.119310305
244	0x3d36d006	0.04463198
245	0xbee07526	-0.43839377
246	0x3d7cfe12	0.061765738
247	0xbe400b53	-0.1875432
248	0x3cb3bc70	0.02194044
249	0xbd2ad8a2	-0.041710503
250	0xbe1976c3	-0.1498671
251	0x3e0f6f93	0.14007406
252	0x3e6fa31e	0.23402068
253	0xbcef58a3	-0.02921707
254	0xbe0316da	-0.12801686
255	0xbeba1af8	-0.363487

layers.0.bias f4 [64]
0	0x3e03e983	0.12882046
1	0x3c1421de	0.009041278
2	0xbe2544b4	-0.1613949
3	0xbdbffe4f	-0.093746774
4	0x3e2195a5	0.15779741
5	0x3c2f7ea7	0.010711349
6	0xbe0ba872	-0.13638476
7	0x3daf39cd	0.085559465
8	0xbd110625	-0.03540625
9	0xbe244198	-0.16040647
10	0x3e25bdfb	0.16185753
11	0x3e504fc6	0.20342931
12	0x3d9dfcc7	0.07714229
13	0x3d44132d	0.04786985
14	0xbd959c52	-0.07305206
15	0xbd6c7ef7	-0.05773827
16	0x3d73ca0e	0.059518866
17	0x3ca59e2e	0.020217028
18	0xbb980e2c	-0.0046403613
19	0xbe1de7b7	-0.15420423
20	0xbd4319f3	-0.04763217
21	0x3dc6d38b	0.09708317
22	0x3baa5fa1	0.005199388
23	0xbd734826	-0.059394978
24	0xbdebc243	-0.11511662
25	0x3e146b76	0.14494118
26	0xbcba7c02	-0.02276421
27	0xbdfecbbe	-0.124412045
28	0x3ded3d1f	0.115839235
29	0x3cc37250	0.02385822
30	0xbd8519a2	-0.0649903
31	0xbde8dd80	-0.11370373
32	0x3e00be67	0.12572633
33	0x3c579f50	0.013160542
34	0xbe648e26	-0.2231985
35	0x3e0687c9	0.13137735
36	0xbe0009e5	-0.12503774
37	0x3d22c40c	0.039737746
38	0x3c00a289	0.007851251
39	0xbe02e8c8	-0.12784111
40	0xbd8a9b95	-0.06767956
41	0x3d40588b	0.04695944
42	0xbd8ba89a	-0.068192676
43	0x3e302aa0	0.1720376
44	0xbd3f935f	-0.046771403
45	0xbdce4d8a	-0.10073383
46	0x3c546b9c	0.012965109
47	0xbe0ea2c9	-0.13929285
48	0xbe0f9e2e	-0.14025185
49	0x3deafa7d	0.11473558
50	0xbd9e332f	-0.07724606
51	0x3da9ce10	0.082912564
52	0xbd428791	-0.047492567
53	0xbd62cc98	-0.055370897
54	0xbe51ab2c	-0.20475453
55	0x3c654705	0.013993983
56	0x3a841291	0.0010076334
57	0x3c000808	0.007814415
58	0xbda35183	-0.079745315
59	0xbde84fc8	-0.11343342
60	0xbc1ec1b8	-0.009689741
61	0x3d90a4c7	0.07062679
62	0x3d3bab7a	0.04581783
63	0x3b593ac0	0.003314659

layers.1.weight f4 [64, 64]
0	0x3e9e6b58	0.30941272
1	0xbd2c6d3f	-0.042096373
2	0x3be128dc	0.006871326
3	0x3d141288	0.036150485
4	0x3e078f65	0.13238294
5	0x3c8a0e93	0.016852653
6	0x3d2b61ab	0.04184119
7	0xbd2b911d	-0.041886438
8	0x3d98b460	0.07456279
9	0x3eb506ea	0.35356838
10	0x3dcc2728	0.09968406
11	0xbe550071	-0.2080095
12	0xbda1cd76	-0.07900517
13	0xbd86d05b	-0.065827094
14	0xbe72a365	-0.23695143
15	0xbe2aaf37	-0.16668402
16	0xbd4c5167	-0.04988232
17	0xbe5ba2a2	-0.21448758
18	0x3d95f20b	0.07321557
19	0x3d419d18	0.047268957
20	0x3e0b92b8	0.13630188
21	0xbe54b19a	-0.20770875
22	0xbe6e8daf	-0.23296236
23	0xbe0505af	-0.1299045
24	0xbdb8e874	-0.09028712
25	0xbe5ebb36	-0.21751103
26	0x3e3f75f4	0.1869734
27	0xbdfdaca3	-0.123864435
28	0x3d63cf7d	0.055617798
29	0xbe97c223	-0.29640302
30	0x3e1e5ec5	0.15465839
31	0x3e4f085d	0.20218034
32	0xbdabd20d	-0.083896734
33	0x3e407d50	0.18797803
34	0x3e571075	0.21002372
35	0x3e6f9cb9	0.23399629
36	0xbd92fce4	-0.07177141
37	0x3e089521	0.13338138
38	0x3d925c08	0.0714646
39	0xbf375c5c	-0.71625304
40	0x3dea4d9b	0.11440583
41	0x3a4d8b23	0.00078408624
42	0xbe66af0b	-0.22527711
43	0xbe79551c	-0.24348873
44	0x3d1d4a3e	0.03840088
45	0x3bf2cb64	0.0074095
46	0xbe04ffe1	-0.12988235
47	0xbe068db8	-0.13139999
48	0xbe042431	-0.12904431
49	0xbdd2ffa9	-0.103026696
50	0xbe8dcfcf	-0.27697608
51	0xbe3ba1e2	-0.18323472
52	0x3e3f8255	0.18702061
53	0xbe0639da	-0.13108006
54	0xbd6796f7	-0.056540456
55	0xbda3452e	-0.07972179
56	0xbe2f6310	-0.17127633
57	0x3d7b2076	0.061310254
58	0x3e46e5f6	0.1942366
59	0x3e94eae4	0.29085457
60	0x3d153d48	0.036435395
61	0xbe87b3a5	-0.26504245
62	0xbd502467	-0.050815966
63	0xbe124a6b	-0.142862
64	0xbc6fd2e7	-0.014637685
65	0x3de9e311	0.114202626
66	0xbde0a254	-0.10968462
67	0x3dffd6ad	0.12492118
68	0xbc9df569	-0.01928206
69	0x3de0f60a	0.10984428
70	0xbc91cde8	-0.017798379
71	0x3d86b16f	0.065768115
72	0xbb5d1024	-0.0033731544
73	0xbe23f159	-0.16010036
74	0x3e87ca0b	0.26521334
75	0x3e5d7ccf	0.21629642
76	0xbd7e2166	-0.06204357
77	0x3d14a7e1	0.036292914
78	0xbe18cfab	-0.14922969
79	0x3d0dd0cd	0.034622956
80	0x3e42bb38	0.19016731
81	0x3de55949	0.111986704
82	0xbe3e6a2b	-0.18595187
83	0xbd84d039	-0.06485028
84	0x3daad2ce	0.08340989
85	0xbd96fc72	-0.07372369
86	0xbe520f22	-0.20513585
87	0xbe355814	-0.1770938
88	0xbcee129e	-0.029061612
89	0x3ddbf65f	0.10740351
90	0xbdd1e94c	-0.10249576
91	0xbf0fb765	-0.5613921
92	0xbb906a73	-0.004407221
93	0xbe74e29c	-0.2391457
94	0xbdf35bff	-0.11882781
95	0xbb06a2e7	-0.0020543875
96	0x3d29465d	0.04132687
97	0x3ead7f13	0.33886012
98	0x3da141dc	0.0787389
99	0x3dbe1f92	0.09283365
100	0x3dc764ad	0.09735999
101	0x3e89a1cc	0.26881254
102	0x3e2486af	0.16067003
103	0xbc367fe4	-0.01113889
104	0x3c9fc71d	0.019504124
105	0x3e57f3bd	0.21089073
106	0x3dc97ddb	0.09838458
107	0xbd8f7af1	-0.07005871
108	0xbe525b31	-0.205426
109	0xbe46862b	-0.19387119
110	0xbdeaa14e	-0.11456548
111	0xbdb569a9	-0.08858044
112	0xbe010b48	-0.1260196
113	0x3e100d93	0.14067678
114	0x3dac4463	0.08411481
115	0x3e021446	0.12703046
116	0xbdc5a3f9	-0.09650416
117	0x3e5542d7	0.20826279
118	0xbe3c3885	-0.18380935
119	0x3d6f9bc9	0.058498178
120	0x3cbb5acf	0.02287045
121	0xbe2152f9	-0.15754308
122	0x3e455e4d	0.19274254
123	0xbe3ec76b	-0.1863076
124	0xbdd23d01	-0.10265542
125	0x3e001a4b	0.1251003
126	0x3ddbf2a3	0.10739639
127	0xbc9a1ffd	-0.018814081
128	0x3e80a91c	0.2512902
129	0xbd7242e1	-0.059145812
130	0x3ddc64c9	0.10761411
131	0x3d3b3bb9	0.045711253
132	0x3e680429	0.22657837
133	0xbdfb1d34	-0.122614294
134	0xbee615ec	-0.449386
135	0x3ca96768	0.02067919
136	0xbc1f8676	-0.009736648
137	0xbd8a5a98	-0.06755561
138	0xbc96f96b	-0.018429479
139	0x3cee6c6d	0.029104436
140	0x3d3044ef	0.04303449
141	0x3d7a9331	0.06117553
142	0xbbd30181	-0.0064393883
143	0xbd8f81a6	-0.0700715
144	0xbe300739	-0.17190255
145	0x3df69733	0.12040558
146	0xbd4fccc6	-0.050732397
147	0x3e30d65a	0.17269269
148	0xbe806d6f	-0.2508349
149	0xbe0ab638	-0.13546073
150	0x3cf82269	0.030289846
151	0x3e583416	0.21113619
152	0xbe438209	-0.19092573
153	0x3dd5b974	0.10435763
154	0x3de72c35	0.11287729
155	0x3e55230d	0.20814152
156	0xbda240ab	-0.07922491
157	0x3d8dbdd5	0.06920973
158	0x3e6e829d	0.23292013
159	0xbe19dba3	-0.15025191
160	0xbeb1c4b6	-0.3472039
161	0x3e709e43	0.23497872
162	0x3bde3693	0.006781408
163	0x3eac8218	0.33693004
164	0x3c92ee45	0.017935881
165	0x3e2fd120	0.17169619
166	0x3ddddca3	0.10833099
167	0xbe0fb7e7	-0.14034997
168	0x3e30d225	0.17267664
169	0x3b55b60b	0.0032609727
170	0x3d3ba6bc	0.045813307
171	0x3ce2d771	0.027690621
172	0x3d0b0385	0.033938903
173	0x3d5a62ff	0.053317066
174	0xbdc7757b	-0.097392045
175	0xbdd4f960	-0.10399127
176	0xbbfa84de	-0.0076452335
177	0xbe110a52	-0.14164093
178	0xbdbabaae	-0.091176376
179	0xbb6ca6e9	-0.0036110228
180	0xbe9def81	-0.3084679
181	0x3e6b8aef	0.23002218
182	0xbd791e71	-0.060820047
183	0xbdc82fec	-0.09774765
184	0xbe574560	-0.21022558
185	0xbe0e8182	-0.13916591
186	0x3cef2be9	0.029195743
187	0x3dc16b96	0.094443485
188	0x3db945bb	0.09046503
189	0x3c56ea0a	0.013117323
190	0x3e62e45f	0.22157429
191	0x3e1263eb	0.14295928
192	0x3db4649e	0.08808254
193	0xbeb32e18	-0.34996104
194	0x3db96e5f	0.09054255
195	0xbedb3e08	-0.42820764
196	0xbe4ba1bc	-0.19885916
197	0xbe6cf48a	-0.23140159
198	0xbe860ef3	-0.2618328
199	0x3dcb3bcd	0.099235155
200	0xbe814099	-0.25244597
201	0x3e4f008c	0.20215052
202	0xbc77831c	-0.0151069425
203	0xbc970b99	-0.018438147
204	0xbeef4271	-0.46730378
205	0x3d9cbd28	0.07653266
206	0x3cbbd33c	0.022927873
207	0xbeb479df	-0.3524923
208	0xbdb5aaad	-0.088704444
209	0xbe876853	-0.2644678
210	0xbe767f79	-0.24072064
211	0xbea4a1c2	-0.3215466
212	0xbe1c4fd4	-0.15264827
213	0xbbb18e41	-0.0054185693
214	0x3dacaf70	0.084318995
215	0xbd201706	-0.039084457
216	0x3d0a6eff	0.03379726
217	0xbd9ae27b	-0.07562729
218	0x3ccc30e1	0.024925651
219	0x3da97c29	0.08275635
220	0x3df35f5f	0.11883425
221	0xbe90765d	-0.28215304
222	0xbe6d9c73	-0.23204212
223	0xbd835c62	-0.06414105
224	0xbe34a205	-0.1763993
225	0x3d6678f3	0.05626769
226	0x3e03bc69	0.12864842
227	0x3e5be3fc	0.21473688
228	0xbe80ff73	-0.25194892
229	0x3db7b29a	0.089696124
230	0x3da1611a	0.07879849
231	0xbdf02fe0	-0.117278814
232	0x3d9e3f62	0.07726933
233	0x3e531e2f	0.20616983
234	0xbeaa50b4	-0.33264697
235	0xbe5de631	-0.21669842
236	0xbde11d9d	-0.109919764
237	0xbd3421b6	-0.04397746
238	0xbdafccce	-0.08583985
239	0x3e039355	0.12849171
240	0xbe1c20ee	-0.15246937
241	0x3dcc2632	0.09968223
242	0x3cf459a0	0.029827893
243	0xbb1d33a0	-0.002398707
244	0xbe30311c	-0.17206234
245	0xbe23fb0f	-0.1601374
246	0xbddfd631	-0.10929526
247	0xbe8f7a01	-0.2802277
248	0xbe96fd88	-0.29490304
249	0xbdb2aebb	-0.087247334
250	0xbe85e333	-0.26149902
251	0x3e4df178	0.20111644
252	0xbe56a14d	-0.20959969
253	0xbc83674f	-0.016040472
254	0xbe8e1daa	-0.27757007
255	0xbe89a2df	-0.26882073

layers.1.bias f4 [64]
0	0xbd65aadd	-0.05607115
1	0x3d500a00	0.050790787
2	0x3e291dad	0.16515227
3	0x3dc192b5	0.0945181
4	0x3e358df3	0.1772993
5	0xbe0ead79	-0.13933362
6	0xbd15d4bd	-0.036579836
7	0x3d5b384b	0.053520482
8	0x3daa4461	0.083138235
9	0x3ef0a4fa	0.47000867
10	0xbe101c0a	-0.14073196
11	0x3e3823d9	0.17982425
12	0x3e820ce3	0.25400457
13	0xbdad711b	-0.08468839
14	0xbe04366b	-0.12911384
15	0x3b79cdcd	0.0038117052
16	0x3d8a9503	0.06766703
17	0xbde85308	-0.11343962
18	0xbd9babcc	-0.07601127
19	0x3e516f4a	0.2045261
20	0x3d77db1f	0.060511705
21	0x3f04adb0	0.51827526
22	0xbe7f22b8	-0.24915588
23	0xbd820fb5	-0.06350652
24	0xbca4c25d	-0.02011221
25	0xbdeb9b90	-0.115042806
26	0x3cf4bc8f	0.029875068
27	0xbbba4b91	-0.0056852777
28	0xbb727527	-0.0036996098
29	0x3d9b8875	0.075943865
30	0x3d41ac8c	0.047283694
31	0xbe4fc738	-0.2029084
32	0xbd8111ea	-0.06302245
33	0xbb45eab1	-0.0030199701
34	0x3cfb52db	0.030679157
35	0x3dd08c89	0.10183055
36	0xbd50848c	-0.050907657
37	0xbe6d9cb6	-0.23204312
38	0x3e4330f1	0.19061638
39	0xbd73962a	-0.05946938
40	0xbdfa8e32	-0.12234153
41	0x3f0a2840	0.53967667
42	0x3e9f277a	0.31084806
43	0xbd9106f9	-0.07081408
44	0x3e226d26	0.1586195
45	0xbdbeca4f	-0.09315931
46	0xbd9f7658	-0.07786244
47	0xbe1a2caa	-0.150561
48	0x3daafe99	0.08349342
49	0xbe0eae6b	-0.13933723
50	0xbda12bb8	-0.07869667
51	0x3ed79c1c	0.4211129
52	0xbd1fbb37	-0.0389969
53	0xbde6c99d	-0.112689234
54	0x3e37e83f	0.17959689
55	0x3ba0a477	0.0049024182
56	0xbe3d8df3	-0.1851118
57	0xbd9741c0	-0.07385588
58	0xbd4638ca	-0.048394002
59	0xbd9e0a6c	-0.077168316
60	0xbceb8901	-0.028751852
61	0x3e1097d1	0.14120413
62	0x3b1f09a8	0.002426723
63	0x3d3927f2	0.04520411

layers.2.weight f4 [4, 64]
0	0xbdde1b59	-0.1084506
1	0x3e26a854	0.1627515
2	0x3e083c9b	0.13304369
3	0x3e7eea9b	0.24894182
4	0x3e917cbc	0.28415477
5	0xbd003615	-0.031301577
6	0x3e000f63	0.1250587
7	0xbe1b577c	-0.15170091
8	0x3e5092f1	0.20368554
9	0x3e1770b9	0.14789094
10	0xbe4528a4	-0.19253784
11	0x3e70707f	0.23480414
12	0x3ebc2d2c	0.36753213
13	0xbd9dd17c	-0.077059716
14	0xbc48d1bd	-0.012257037
15	0x3d3b630a	0.045748748
16	0x3e1be129	0.1522261
17	0xbcd7b1d0	-0.026329905
18	0xbea60f28	-0.32433438
19	0x3e55273e	0.20815751
20	0x3ea83576	0.32853287
21	0x3e196629	0.14980377
22	0xbdba14ff	-0.09086036
23	0xbe68caea	-0.22733656
24	0x3d1a0a27	0.03760734
25	0xbd9b441b	-0.075813495
26	0xbe4a57f1	-0.1976011
27	0xbf0944bb	-0.536205
28	0xbc97dfe6	-0.01853938
29	0x3e491f04	0.19640738
30	0xbe51ece5	-0.20500524
31	0x3d0ec4d8	0.034855694
32	0xbdbe6eef	-0.09298503
33	0x3de3a147	0.111147456
34	0x3e425816	0.18978915
35	0xbd910d48	-0.07082611
36	0x3ead3b97	0.33834526
37	0xbe67164d	-0.22567101
38	0x3eb030eb	0.3441232
39	0x3eb8d0fe	0.36096948
40	0xbda54adb	-0.08070918
41	0x3e5095b6	0.2036961
42	0x3dcc1fbf	0.099669926
43	0x3e773680	0.24141884
44	0x3e91444d	0.28372422
45	0x3d814cb4	0.06313458
46	0x3e2e8e2e	0.17046425
47	0x3dbe1185	0.09280685
48	0xbd913fc0	-0.070922375
49	0xbd9f33c7	-0.077735476
50	0x3f1678a9	0.5877786
51	0x3e2fad2b	0.17155902
52	0x3e80122c	0.25013864
53	0xbd88ef36	-0.06686251
54	0x3e514cf3	0.2043951
55	0xbd0b88a6	-0.034065865
56	0xbe601167	-0.21881638
57	0x3e65eef6	0.22454438
58	0xbdcac724	-0.09901264
59	0xbd248416	-0.04016503
60	0xbd9b2037	-0.07574504
61	0x3e5da77e	0.21645924
62	0xbbfaa636	-0.0076492084
63	0x3e33ae06	0.17546853
64	0x3e6d843b	0.23194973
65	0x3e135fce	0.14392015
66	0x3e10bca9	0.14134468
67	0x3df6f03a	0.12057538
68	0x3e75dd85	0.24010284
69	0xbd08347e	-0.033253185
70	0x3e60d0bd	0.21954627
71	0xbe6fb8cf	-0.23410343
72	0x3e88cc81	0.26718524
73	0x3e2a5e17	0.16637455
74	0xbd869652	-0.0657164
75	0x3e707ecc	0.23485869
76	0x3e833dc0	0.2563305
77	0x3e14323d	0.1447229
78	0xbe3554ce	-0.17708132
79	0x3e099e1e	0.13439223
80	0x3e088adf	0.13334225
81	0xbb730411	-0.0037081281
82	0xbe2650f3	-0.16241817
83	0x3e1bbb8a	0.15208259
84	0x3e3e8340	0.18604755
85	0x3e59c83c	0.2126779
86	0xbd5fbf18	-0.0546256
87	0x3ce4592e	0.027874555
88	0x3e23ecb0	0.16008258
89	0xbd36a82c	-0.044593975
90	0xbdd2437c	-0.10266778
91	0x3dba92a6	0.09110002
92	0x3e6024d2	0.21889046
93	0x3ea002bb	0.31252083
94	0xbd63e8ca	-0.055641927
95	0x3b431aca	0.0029770606
96	0xbe6e7c83	-0.23289685
97	0xbe03a4f2	-0.1285589
98	0x3e3f9da6	0.18712482
99	0x3de2b1ec	0.11069092
100	0x3f11cffc	0.56957984
101	0xbe5dafe4	-0.21649128
102	0x3e2d8e6d	0.16948862
103	0x3e96d527	0.29459497
104	0x3d849573	0.06473818
105	0x3e3af82f	0.18258737
106	0x3d8ba12c	0.068178505
107	0x3e42076a	0.1894814
108	0x3e0e97a1	0.1392503
109	0x3e1b8890	0.15188813
110	0x3e8fa390	0.28054476
111	0xbd344139	-0.044007514
112	0x3dc3b11a	0.09555264
113	0xbd9d71d7	-0.07687729
114	0x3ede1450	0.43374872
115	0x3e03f837	0.12887655
116	0x3e94b458	0.2904384
117	0x3dd963e9	0.106147595
118	0x3e0184d8	0.12648332
119	0x3e45af0f	0.19305061
120	0xbd98fc26	-0.074699685
121	0x3e75f072	0.24017504
122	0xbe2dd49a	-0.16975632
123	0xbd50fb02	-0.05102063
124	0xbdc30a88	-0.09523493
125	0x3e14f631	0.1454704
126	0xbe0d8f08	-0.13824093
127	0x3e2bed76	0.16789803
128	0xbe551690	-0.20809388
129	0x3e3ba353	0.18324022
130	0x3e6e8e04	0.23296362
131	0x3ea73fe6	0.32665938
132	0x3ec4c796	0.38433522
133	0xbd0ad652	-0.033895798
134	0x3eaa8091	0.33301213
135	0x3a4fc7df	0.00079262065
136	0x3de87f85	0.113524474
137	0x3e0aca80	0.1355381
138	0xbe7e7d8d	-0.24852581
139	0x3dd10ff2	0.102081195
140	0x3e8787cf	0.264708
141	0xbedd86fb	-0.43267044
142	0xbe7c5e7a	-0.24645415
143	0x3edb867d	0.42876044
144	0x3e2b18f9	0.16708745
145	0xbe199800	-0.1499939
146	0xbe1c4657	-0.15261208
147	0xbcd470af	-0.025932638
148	0x3bcd3e34	0.0062635187
149	0x3e82c902	0.25543982
150	0xbe3bae60	-0.18328238
151	0x3c176c9e	0.009242205
152	0x3e124e88	0.1428777
153	0xbd68400a	-0.056701697
154	0xbda1991b	-0.07890531
155	0x3b790273	0.0037995845
156	0x3ef18da3	0.47178373
157	0x3ec91ff4	0.3928219
158	0x3eaad3d8	0.3336475
159	0xbe43f660	-0.19136953
160	0xbf1bdc76	-0.6088327
161	0xbe027a4b	-0.12741964
162	0x3ef468c8	0.47736192
163	0x3e9ea10a	0.30982238
164	0x3cd6861a	0.026186991
165	0xbe050c01	-0.1299286
166	0x3e116b54	0.14201099
167	0x3ee125c6	0.4397413
168	0x3e657547	0.22408019
169	0x3e4f3178	0.20233715
170	0x3e2873a1	0.16450359
171	0xbe4c7028	-0.19964659
172	0x3e36a43f	0.17836092
173	0x3dc83cc2	0.09777214
174	0x3e983b06	0.2973253
175	0x3db67e0d	0.08910761
176	0x3e3f3c9a	0.18675461
177	0xbcafd384	-0.021463163
178	0x3e9869ee	0.29768318
179	0x3e4e656c	0.20155877
180	0x3ed71441	0.4200764
181	0x3d3367df	0.04380023
182	0x3dfc5be1	0.12322212
183	0x3e0f2a00	0.13980865
184	0xbe19956e	-0.14998409
185	0x3ee243fc	0.44192493
186	0x3ea8132b	0.32827124
187	0xbe9385bb	-0.28812966
188	0xbe7b2cfe	-0.24528882
189	0x3d5d6c9d	0.05405866
190	0xbdf7d4c8	-0.12101132
191	0xbd26542b	-0.040607613
192	0xbe2c0305	-0.16798027
193	0x3e4dd45a	0.20100537
194	0x3dba7808	0.091049254
195	0xbf0f1ba5	-0.5590156
196	0x3dad75e0	0.084697485
197	0x3eb82c63	0.35971364
198	0xbd7e3660	-0.062063575
199	0x3d2f93fa	0.04286573
200	0x3e6dfc27	0.2324072
201	0x3e545b0c	0.20737857
202	0x3d8de5ed	0.069286205
203	0x3d3deaaa	0.04636637
204	0x3eab33d4	0.3343798
205	0x3d392437	0.045200553
206	0x3db3e16d	0.08783231
207	0x3dec1ae2	0.11528565
208	0x3ee9ba63	0.45650014
209	0x3e9680b9	0.29395083
210	0xbd51f048	-0.05125454
211	0x3dbfdc92	0.09368242
212	0xbbd2aca9	-0.006429274
213	0x3e6d1d13	0.23155622
214	0xbe1f79a0	-0.1557374
215	0x3e30b4b3	0.17256431
216	0x3e8bafc2	0.2728253
217	0xbdb7a188	-0.089663565
218	0xbe4fb80e	-0.20285055
219	0xbe5dabe2	-0.216476
220	0x3e9e1709	0.3087695
221	0x3e345f5f	0.17614506
222	0x3dbbdede	0.09173368
223	0xbeabf05b	-0.33581814
224	0xbebdff30	-0.37108755
225	0x3e6742c3	0.22584061
226	0x3e65a3c5	0.22425754
227	0x3c403f93	0.011733907
228	0x3f273446	0.6531414
229	0xbe824bbb	-0.25448403
230	0x3de16ebd	0.1100745
231	0x3f174d71	0.5910254
232	0xbc58e7d1	-0.013238863
233	0x3e4f7d99	0.20262755
234	0x3e1da3ac	0.15394467
235	0xbddc4330	-0.107550025
236	0x3e881545	0.26578727
237	0xbe00bb12	-0.12571362
238	0x3e42e53d	0.1903276
239	0x3a69c7ee	0.00089180365
240	0x3e0a91bb	0.13532154
241	0xbe8fe457	-0.28103897
242	0x3f082efb	0.53196687
243	0x3e128a9d	0.1431069
244	0x3e97b7ec	0.2963251
245	0x3da8ab01	0.082357414
246	0x3daeea8f	0.08540832
247	0x3e1e4063	0.15454249
248	0xbd951c8c	-0.072808355
249	0x39f26ab4	0.00046237337
250	0xbe8873bb	-0.26650795
251	0xbe145190	-0.14484239
252	0xbe04ca4b	-0.12967794
253	0xbd985512	-0.07438101
254	0xbd9c1341	-0.0762086
255	0x3dd41b9e	0.1035683

layers.2.bias f4 [4]
0	0x3e8ea03e	0.2785663
1	0x3e8ead32	0.27866513
2	0x3e41520b	0.18878953
3	0x3e5fe06a	0.21862951
